MIFeedback/resources/Subject01/Subject01_IFNet_s1_calibration_2s.pth (torch, 59241 bytes, 17 tensors)

weight f4 [128, 35, 1]
00000000: f07a 49ba 7d87 fdbb 62f0 9abc a8b1 8a3c
00000010: 2d0e 033c 39c9 243c 921a afbb 4a3c 20bc
00000020: 4c15 513c a575 3f3c 1647 35bc 2e98 053c
00000030: 41d6 d0bb 0843 bfba dd5c f53c 4348 6ebc
00000040: 4c5b 23bc 94f4 c33d 9657 23bd 02cc 5d3b
00000050: 5f7b ccbb ce58 f8bc d91e 643c 32a9 31bd
00000060: 2c2b c538 f349 73bc c1d0 323c 76a3 f93b
00000070: 86c1 f53b d258 6b3b b6ad e33b dbd3 91bc
00000080: 897e a6bb 8699 27bc 1fde 0a3c d195 cbba
00000090: e726 15bc 0e55 083b 8d8b 933c 71dc c8bc
000000a0: d6b3 8aba 8d92 21bb d5ae 5b3c bb7b 9d3a
000000b0: 0142 3ebc ff98 79bc a8bb 613c 5787 c73c
000000c0: c277 57bb cae3 103b 0d17 c8bb 52ff bb3b
000000d0: 942e 16bc 08f4 2e3d ac95 883c 4f5d 0e3c
000000e0: 67f7 1b3c b9ec 00bc 50da c53b ae80 6fba
000000f0: ba9e 5ebb b3c1 bbbd 52b3 373c ede2 b2bb
00000100: 8b9c 92bb 30a3 1cba 6c70 123c 232c 3ebb
00000110: 5147 993c cb0a 883a 71ef 243c de6d 8dbc
00000120: 4da3 f73b 1c84 0b3b 9c7b f0bc 25f5 ef3c
00000130: b6e3 76bc 30f3 89bc 6ec2 4d3c c085 d439
00000140: a507 7dbc dc76 213b 5b74 c3bb 8958 f53c
00000150: aeab 043d 5961 09bd 4382 9f3d 3860 75bc
00000160: 988b 923b 4232 57bc 95ca 4abc 31a0 283c
00000170: c809 ccbb f330 3fbc 363e 0cbc ab0b 0abd
00000180: 19b5 713c 1a05 bebb ebeb e5bc 8f35 e03a
00000190: 9fa7 363c 3142 c6ba fc79 923c b26a 253c
000001a0: 8c01 3f3c f9fe c93b 5a56 643d 9501 cabc
000001b0: b857 983c 2f97 ccb9 3a1a 2fbc 5c8d 7b3c
000001c0: 27b9 f03a 78ff d9bb 5b8a 17bd 3f86 71bc
000001d0: 7d8d d93b f12c 88bc 688b d23c c939 b4bc
000001e0: 0ac7 f33c 34f9 cf3c 4d61 0a3c 85ef 313b
000001f0: ce83 cebb b5c7 6bbc 8548 cfba 84e0 79bd
00000200: 0ff1 8c3c f7e9 23bb 3059 49bc a86f f7bb
00000210: d832 4e3b 8d6a 033d 163d 963c d78c 1bbd
00000220: 5c9c 7f3b b8ff d83c 384e 5dbc f3fd 6d3c
00000230: 1220 a1ba daf8 97bc 20e4 123c f872 38bb
00000240: da96 d0bb 72a3 d83b c387 e43b e093 e2bb
00000250: 1f15 e9bb 7748 35bc 270f 4f3d e168 26bc
00000260: fd7a a9bc 74bd e43a 4e00 02bc f394 f03b
00000270: ab1c 373b f5ef 813d c014 c2bc 4d18 00bc
00000280: 3a93 88bb dc67 2a3d 0aa3 a83b 5a42 b4bc
00000290: f6d8 4b3c 5877 42bd 06e5 643d 5074 00bc
000002a0: 517e dbbc 4174 5bbc d3a3 b63c 257e 9fb9
000002b0: 23cb 5dbd 372b ed3b 895f 12bc b584 36bb
000002c0: 54ed 143c a715 f2bb 16a7 f538 1132 5dbd
000002d0: cf34 953c 9124 863b e8e3 b23b 97ec 6bbc
000002e0: 3618 c93c b346 8bbc 5e6b 333d 6fbc 88bc
000002f0: 0a24 df38 e94b 90bb ef6d c1bc 76ad 1e3d
00000300: 71a3 58bc 61aa 053c c971 163d 2a1e afbb
00000310: d633 b33c 00c5 2a3d 1d63 65bd ebb1 81bc
00000320: 8080 b3bb 19d7 91bc 0b2d 90bc b595 76bc
00000330: 1974 cf3b 04a7 abbc c40d d93c 0ae4 4a3b
00000340: 4bfc a63c 5017 38bc 39af 9a3b 154f 6abc
00000350: ba53 9a3c d0f9 7cbc 91a6 dfbc bb81 d13a
00000360: 0dfc b03b d445 e1ba 75df 3cba 5ced 2d3c
00000370: e157 593d f58b afbc 5e29 d73c 0f32 8bbc
00000380: b0b0 783b 8e55 53bd 6ce9 50bd d4d5 3fbc
00000390: d1b1 dbbb 0a56 0b3c e49f 1c3d 90fe ea3c
000003a0: 8da0 2d3d c2cc e03b f854 cb3b 4f7a 2a3b
000003b0: 8221 4abc 9ee1 f4bc 08c7 0bbc 741e a7bc
000003c0: 3898 87bb a099 e03c e6fb 0c3a 5d96 c2bc
000003d0: e2fa 353d 7f0d cabc e0ae 373d 7f23 a2bb
000003e0: c35d a6bc 5bab c8bc 1528 683b 0916 23bc
000003f0: e0a1 533a d78b ff3b 8fd3 33bd eade a13b
-0.00076858606 -0.0077370987 -0.018913452 0.016930416 0.007998985 0.010057741 -0.0053437436 -0.009779999
0.012761425 0.0116857635 -0.0110643115 0.008153958 -0.0063731973 -0.001459212 0.029951507 -0.014543596
-0.009970497 0.09568134 -0.03987845 0.0033843522 -0.006240293 -0.030315783 0.01392337 -0.043374248
9.4017334e-05 -0.014849174 0.010914029 0.007618363 0.0074998764 0.0035911095 0.006948198 -0.017801216
-0.005081002 -0.010229474 0.008475809 -0.001553232 -0.009103513 0.002080265 0.018010879 -0.024519177
-0.001058216 -0.0024654001 0.013408382 0.0012015024 -0.011612416 -0.015234231 0.013777651 0.024356527
-0.0032877778 0.002210843 -0.0061062635 0.0057372237 -0.0091663785 0.042713195 0.016672932 0.008689239
0.0095194345 -0.007868939 0.006037988 -0.0009136301 -0.003396912 -0.091678046 0.011212187 -0.0054591806
-0.004474228 -0.00059752446 0.008937936 -0.0029018007 0.018710764 0.0010379193 0.010066853 -0.017264303
0.0075573088 0.002128846 -0.029355817 0.029291699 -0.015068939 -0.016839594 0.012558563 0.00040535443
-0.015443717 0.0024637496 -0.0059647984 0.029949443 0.03239029 -0.033540104 0.07788517 -0.014976554
0.0044722073 -0.013134541 -0.012377401 0.010292099 -0.006226752 -0.011669385 -0.008559754 -0.033702534
0.01475265 -0.005798948 -0.028066596 0.0017105805 0.011148362 -0.0015125928 0.017880432 0.010096239
0.011658084 0.0061644283 0.055746414 -0.024658957 0.018596515 -0.00039022553 -0.010687405 0.015353527
0.0018365727 -0.0066527687 -0.03699718 -0.014741479 0.006639181 -0.016622992 0.02570124 -0.02200021
0.029757995 0.025387384 0.00844605 0.0027150821 -0.0063023334 -0.014390876 -0.0015814459 -0.06100513
0.01720479 -0.002501128 -0.01228933 -0.0075511523 0.003146341 0.032084037 0.018339675 -0.037976112
0.003900311 0.026489124 -0.013507418 0.014525878 -0.0012292883 -0.018551279 0.008965522 -0.0028144699
-0.006365639 0.006611281 0.006974192 -0.0069146007 -0.0071131135 -0.01106464 0.05055156 -0.010156841
-0.020688528 0.0017451481 -0.007934643 0.007341975 0.0027940671 0.06344596 -0.023691535 -0.007818294
-0.0041679414 0.041602954 0.005146389 -0.022004295 0.012441864 -0.047477096 0.055882476 -0.007840231
-0.02679363 -0.013394416 0.022294914 -0.00030420828 -0.054148804 0.0072378176 -0.00893391 -0.0027850096
0.009089787 -0.007387835 0.000117136326 -0.054002825 0.018213658 0.0040937145 0.0054592974 -0.014399669
0.024547677 -0.017001485 0.043803565 -0.016691415 0.000106401814 -0.0044035804 -0.02361199 0.038739644
-0.013222561 0.008158297 0.036729608 -0.005344172 0.021875303 0.04169178 -0.056002725 -0.015831908
-0.005477965 -0.017802762 -0.017599603 -0.015050341 0.0063309786 -0.020953663 0.026495822 0.0030958676
0.020383975 -0.011236027 0.004720595 -0.014301081 0.018838752 -0.015440419 -0.027301105 0.0015984097
0.0054011405 -0.0017186948 -0.00072049286 0.010615673 0.053062323 -0.021429041 0.026264843 -0.016991643
0.003794711 -0.051595263 -0.05100386 -0.011708695 -0.006704547 0.0085044 0.03823842 0.028685838
0.04238944 0.0068603465 0.0062051974 0.0026012843 -0.01233709 -0.029892739 -0.0085313395 -0.020400263
-0.004138019 0.027417004 0.0005378112 -0.02375334 0.044428714 -0.024664639 0.04484451 -0.004948079
-0.020308381 -0.024495771 0.0035424281 -0.009953984 0.00080731325 0.0077986526 -0.04390293 0.0049399035

weight f4 [128]
00000000: d2c7 863f 8080 a23f 0c3d 833f f4dc 6e3f
00000010: 6f01 803f 789d 823f dec2 803f 34e2 743f
00000020: 5575 863f 2703 933f 1c9a ab3f 43d4 893f
00000030: da30 793f 94bb 873f 22bc 8a3f e724 a63f
00000040: 3b73 8e3f 1f90 8a3f ec23 843f 3f0f 823f
00000050: 23c3 a33f d5a5 7c3f 811c 733f 8d78 803f
00000060: e69b 853f 8fd3 833f 3127 813f 1c7f 903f
00000070: b7f8 623f 7775 5d3f 7dd1 853f 34f5 913f
00000080: 7a46 8a3f e36a 8a3f 038f 6f3f c2ce 7b3f
00000090: c574 833f ea0a 883f fa0c 7c3f e147 9c3f
000000a0: 1d65 843f 1069 7d3f bd0e 873f 3046 883f
000000b0: 827f 933f 909f 823f 2936 a33f 5c95 933f
000000c0: 39bf 743f 2e8d 943f 7f37 883f 5432 673f
000000d0: 5b2b 873f 42e3 883f 3c9e 773f b28e 623f
000000e0: d464 6f3f c2aa 773f b799 903f 5335 a23f
000000f0: be65 783f abd7 7a3f a3d5 a13f 04e1 7a3f
00000100: d90f 703f 3862 6f3f d6de 793f 4637 813f
00000110: 0019 823f 1cfa 713f a24e 803f 7b92 7a3f
00000120: 8173 8b3f 4f0b 693f 2229 6a3f 73b3 733f
00000130: f7a4 893f 391b 783f cdf3 813f 5773 683f
00000140: c08a 803f 434f 623f 2308 763f ad5d 843f
00000150: eae5 723f 25ec 7d3f a1a2 853f 7111 793f
00000160: a84b 8b3f 1697 743f 96f7 6e3f 6d78 763f
00000170: 7b15 823f cbcc 823f af87 713f bf08 723f
00000180: 2e41 883f c848 833f 06a0 853f 6c65 6d3f
00000190: 09e6 933f 25b4 843f cfba 5d3f a3a2 823f
000001a0: fe52 863f 6c15 763f 88b3 813f f305 833f
000001b0: 1631 6d3f 5cbf 7c3f a4fd 5e3f 878d 7d3f
000001c0: b1a2 813f 2a06 823f 312e 803f 2760 843f
000001d0: 1546 693f 5c56 7d3f 608a 783f fbfb 5e3f
000001e0: ad37 823f aafc 7e3f 9e13 683f 5e29 823f
000001f0: f92e 763f ac3e 863f 7a76 7b3f c9a9 873f
1.052973 1.2695465 1.0253005 0.933059 1.0000437 1.0204306 1.0059469 0.9565766
1.0504557 1.1485337 1.3406405 1.0767902 0.97340167 1.0604119 1.0838664 1.2980012
1.1128916 1.0825232 1.0323462 1.0160903 1.2793926 0.9869054 0.9496537 1.0036789
1.0438201 1.0298938 1.0090085 1.1288791 0.8866076 0.8650736 1.0454556 1.1402955
1.0802758 1.0813869 0.93577594 0.9836236 1.027001 1.0628331 0.984573 1.2209436
1.0343357 0.9898844 1.0551373 1.064642 1.1523287 1.0204945 1.2750903 1.1529956
0.9560428 1.1605585 1.0641936 0.9031117 1.0560106 1.0694354 0.9672582 0.88498986
0.93513227 0.9674493 1.129691 1.2672523 0.97030246 0.97985333 1.2643322 0.97999597
0.9377418 0.93509245 0.97605646 1.0094993 1.0163879 0.9452226 1.0023997 0.9787976
1.0894624 0.9103288 0.91469014 0.9519569 1.0753468 0.9691654 1.0152527 0.90800995
1.0042343 0.88402194 0.96106166 1.0341088 0.9488207 0.9918845 1.0440255 0.9729224
1.0882463 0.9554304 0.93346536 0.96277505 1.0162805 1.0218748 0.9434766 0.94544595
1.0644891 1.0256586 1.043946 0.9273288 1.1554576 1.0367476 0.8661317 1.0205883
1.0494077 0.9612644 1.0132914 1.023619 0.92653024 0.9872949 0.87105775 0.9904408
1.0127774 1.0158131 1.0014096 1.0341843 0.9112256 0.989599 0.97086143 0.8710324
1.0173241 0.99604285 0.90654933 1.0168874 0.96165425 1.0487876 0.98227656 1.0598689

bias f4 [128]
00000000: e5af 35bd f24f a73d 5cdf bdb7 eb3c 8f3d
00000010: 1896 75bd d12a c63d 4cc2 323d 1b99 013d
00000020: 8766 283d 5702 0cbd 713a ff3b 1607 cbbd
00000030: a599 6e3d a1ca 90bd 32ce 653d 17fc 2a3d
00000040: 49df f3ba e250 ab3d 2e57 95bd 5ae7 993c
00000050: f92f b93d 51e1 49bd 8ea3 8f3d a7a9 b83c
00000060: 3ab9 d53c 74e9 c03d cc3d 69bd 0d9a 79bd
00000070: 496f b2bd d01d fd3d 902c d43c 139c 953c
00000080: 7b26 e43b a2b3 113c e88b b8bd 06e6 cf3d
00000090: 0b66 ab3a 944b 5b3c c18c 7f3c 2c33 11bd
000000a0: f826 973c 4480 55bd 91e2 293d 6d8c 8e3d
000000b0: 1ab4 2cbc 4f23 bf3d 1255 543d 7f79 693c
000000c0: 774d 91bd e1cb 27bd 3f4e 2b3d 2540 303e
000000d0: e57b 7f3d d027 623d 8e3a fe3c 57c9 40be
000000e0: ff63 2ebd 5ddc 7e3d be3a 103d 41ab 57bd
000000f0: e1cc 4a3d 29c6 f3bc d8d3 4a3d 2857 0d3d
00000100: 9210 d4bc bda8 85bd 35a5 77bc 2fbf 0d3e
00000110: b154 4b3d 62d8 063e bd28 81bd b4fe ff3a
00000120: 6935 453d 1f31 09bc 3b17 703d 6f1a 38bc
00000130: 7594 1ebc 244a 833c 6077 8cbc d1f5 7f3b
00000140: 7c44 053d 63f4 063d 9cbf 053b 8895 93bc
00000150: 0762 3cbd 5d8f a33d 9fc8 32bc 2a52 703d
00000160: a820 f33a a194 08bd afb0 b7bb ea62 183d
00000170: d6c5 98bd 0c7e a5bd d9bb 70bd c9d5 483b
00000180: 7292 83bb 7068 24bd 4a8c f3bb a2ad 85bd
00000190: 2a5f 2bbc 3fc2 b6bb fbfa 3abe f915 053d
000001a0: b2d8 773b f109 0ebd f05b 30bd 6f10 12bd
000001b0: c459 3bbc 7c46 253c f10d ee3d 43b2 673c
000001c0: 6c86 bd3b baaf e73c 28d1 643a f9a4 b5bd
000001d0: 9e30 5ebc c4e3 4ebd d5f6 97bd 1194 243e
000001e0: 2c8a b4bd cecf ee3c f7a4 b8bd 4c81 0ebd
000001f0: 5014 6f3c 2587 81bc 6f86 823c 42ea 6dbd
-0.0443572 0.08169545 -2.2634566e-05 0.06994041 -0.059957594 0.09676135 0.043642327 0.031640153
0.041113403 -0.03418192 0.007788949 -0.09913461 0.058251996 -0.070698984 0.056104846 0.041744318
-0.0018605973 0.083650365 -0.07292019 0.018787075 0.09042353 -0.049287144 0.070136175 0.022541834
0.0260893 0.09419528 -0.0569437 -0.06093793 -0.08712632 0.12359202 0.025900155 0.018262899
0.006962595 0.008892925 -0.0901106 0.10151295 0.0013076676 0.013384718 0.015597523 -0.035449192
0.018451199 -0.052124277 0.041475836 0.06960378 -0.010540986 0.093329065 0.051838942 0.014250158
-0.07094853 -0.04096592 0.04182267 0.17211969 0.062374014 0.05521375 0.03103378 -0.18826805
-0.042575832 0.062221874 0.03521227 -0.052653555 0.049511794 -0.029757576 0.049518436 0.034506947
-0.025886808 -0.06526325 -0.015115072 0.13842462 0.049641315 0.13168481 -0.06306598 0.0019530864
0.04814664 -0.008373528 0.058615904 -0.011236771 -0.00967895 0.016026564 -0.017146766 0.003905643
0.032536015 0.03294791 0.0020408398 -0.018015638 -0.045991924 0.07986329 -0.01091209 0.058672108
0.0018549161 -0.03334487 -0.005605779 0.037203707 -0.07459609 -0.08080682 -0.058772895 0.0030645004
-0.0040152604 -0.04013866 -0.0074324952 -0.065272585 -0.010459701 -0.005577355 -0.18259804 0.032491658
0.003781837 -0.03467745 -0.04305643 -0.035660204 -0.011434976 0.010087606 0.11623753 0.014141622
0.0057838466 0.028282035 0.00087286765 -0.08869357 -0.013561396 -0.050510183 -0.07420126 0.16072108
-0.08815417 0.029151823 -0.090158395 -0.034791276 0.014592245 -0.015811512 0.015933244 -0.058084734

running_mean f4 [128]
00000000: d029 bcb5 6842 a5b6 ddc3 7d36 1382 f536
00000010: 2d85 22b7 8a6f 9eb3 bcb2 b134 78eb 6eb4
00000020: 0770 23b7 b2e4 d5b5 6c0d 68b6 e0ee b5b6
00000030: a28d c635 f6ac ac36 c2a4 70b6 9f37 6736
00000040: ed8f 8135 c565 3e36 f761 13b7 b153 e235
00000050: 2422 11b6 bae3 b436 27bd 15b7 2c43 04b7
00000060: 0e0b a636 048a c2b6 7c7b 9fb6 ad70 ea34
00000070: 6df0 e235 02d0 ab35 dd6a 48b5 88ae 0137
00000080: 87a2 1135 a52d d0b6 56ed 84b5 67ac 7c35
00000090: ca92 2e35 480b 2436 4de1 0ab6 7c9a 9036
000000a0: df33 54b6 ea30 0836 4ba0 a136 92ed bcb5
000000b0: fc85 06b7 55d7 c436 95bf 55b6 0d23 53b6
000000c0: 50ae 71b6 24b8 3636 10e2 ed36 43d3 91b4
000000d0: 67d2 21b7 fe98 ddb5 145a d9b4 7630 b536
000000e0: 0d06 9b36 996d dbb4 8d15 6134 9ee3 5335
000000f0: 7a16 4fb6 f115 9236 30a3 bab6 76fb d8b6
00000100: 600b 2835 2884 34b5 cae5 5934 9d15 27b5
00000110: b170 d8b4 b8b4 0eb5 d84e 25b4 8a77 9a35
00000120: 3033 3cb4 429e 1235 3867 90b5 ddd1 a235
00000130: d96d cf34 b372 ab34 19f9 21b4 1265 04b5
00000140: f99a 8435 925a 4fb4 a458 1335 005d 80b4
00000150: 359a 0cb5 f686 80b5 e0ec 09b5 4544 98b5
00000160: bf0e c6b3 917b 8134 5f35 31b2 7bad 2034
00000170: f368 19b5 a6c7 4ab5 ce45 06b4 cc29 3bb5
00000180: 52ad ba33 58c6 5db3 0f57 49b4 f8e3 c0b4
00000190: e4d0 c3b4 f55c 1435 5c10 1735 12de a734
000001a0: 2ef2 7e34 a93c b235 baf7 5ab2 8c1b 8c34
000001b0: c5a9 e1b4 f939 a6b5 d5ab dc34 f703 d934
000001c0: 2bc5 c735 4afb db34 cf20 85b5 4ee0 2735
000001d0: 87f9 25b5 3378 9eb4 6b12 21b5 9cda 9834
000001e0: 989b fa34 84f0 35b4 2c79 6535 fee7 f8b4
000001f0: acbf a4b5 cffa 5832 00a7 e8b4 d701 6d35
-1.401926e-06 -4.925114e-06 3.7813945e-06 7.3167116e-06 -9.68696e-06 -7.377737e-08 3.3098866e-07 -2.225114e-07
-9.7416405e-06 -1.5936296e-06 -3.4578507e-06 -5.422029e-06 1.479337e-06 5.1461348e-06 -3.5858689e-06 3.4454058e-06
9.653137e-07 2.8371444e-06 -8.784692e-06 1.686267e-06 -2.1626556e-06 5.390929e-06 -8.9251325e-06 -7.883453e-06
4.9484725e-06 -5.7977177e-06 -4.7529447e-06 4.366788e-07 1.6908285e-06 1.2801031e-06 -7.466131e-07 7.729635e-06
5.425322e-07 -6.204197e-06 -9.90384e-07 9.4128194e-07 6.503366e-07 2.444447e-06 -2.0694745e-06 4.3095188e-06
-3.1620655e-06 2.029405e-06 4.8168345e-06 -1.4076234e-06 -8.018218e-06 5.866323e-06 -3.1850989e-06 -3.1461852e-06
-3.6013262e-06 2.7227297e-06 7.0894675e-06 -2.7162068e-07 -9.645336e-06 -1.651031e-06 -4.048494e-07 5.399862e-06
4.6200644e-06 -4.0871672e-07 2.0962598e-07 7.893485e-07 -3.0858487e-06 4.3536934e-06 -5.5622295e-06 -6.4665755e-06
6.260143e-07 -6.724754e-07 2.0293297e-07 -6.22438e-07 -4.031513e-07 -5.31621e-07 -1.5395506e-07 1.1508685e-06
-1.7527486e-07 5.4619534e-07 -1.0758877e-06 1.2131019e-06 3.863668e-07 3.1934687e-07 -1.5084915e-07 -4.932091e-07
9.879869e-07 -1.9311327e-07 5.4890756e-07 -2.3909524e-07 -5.2378465e-07 -9.576022e-07 -5.1381176e-07 -1.1344752e-06
-9.222776e-08 2.411803e-07 -1.0314891e-08 1.4964273e-07 -5.714966e-07 -7.554139e-07 -1.2505117e-07 -6.972375e-07
8.692827e-08 -5.1635965e-08 -1.8751255e-07 -3.5928656e-07 -3.6473568e-07 5.5269567e-07 5.627569e-07 3.126775e-07
2.3743698e-07 1.3279688e-06 -1.2745597e-08 2.6097075e-07 -4.203304e-07 -1.2384836e-06 4.1103218e-07 4.0422285e-07
1.4884039e-06 4.0974766e-07 -9.918821e-07 6.2538754e-07 -6.18304e-07 -2.951725e-07 -6.0003975e-07 2.8471266e-07
4.6679338e-07 -1.6944438e-07 8.5485476e-07 -4.6362396e-07 -1.2274736e-06 1.2629882e-08 -4.3334876e-07 8.829206e-07

running_var f4 [128]
00000000: 6702 5f37 0fb1 8438 27f1 a737 c8d1 2838
00000010: 3688 e237 ad4d a937 132f f837 d60d 3238
00000020: 096d 0838 ff03 6738 f59c 8038 9749 8a38
00000030: b896 8e37 103c 9a38 1cc4 1938 e837 9738
00000040: 4334 b137 51e8 8038 7edc 1e38 fcb2 8d37
00000050: 334f 1838 7c28 3738 3791 1738 393b b937
00000060: 6066 0338 9dbd 1338 424f 2538 503e ea37
00000070: beea f637 2b57 8637 0831 be37 4ac9 1138
00000080: eb23 e737 bec9 1938 00f4 6838 b80d 8637
00000090: 7ef5 8437 a25e af37 615c 8237 980f 5538
000000a0: fd85 f937 ebd1 1a38 2213 3838 5fcb 2038
000000b0: bb51 d337 73bf b037 5008 8a38 d82f 0c38
000000c0: cde3 ac37 efae 0938 dbe4 f937 090a d437
000000d0: f0f6 4838 5579 e037 3c21 a737 6f57 8838
000000e0: 01b3 b037 b3b4 8038 5ab1 8237 14c8 4838
000000f0: e2da 4038 14d1 0d38 92f5 ae38 8ac2 ce37
00000100: 6d84 2037 cffb 7137 0e6c 0c37 b039 ce37
00000110: 741e 4f37 b7f8 7437 b2af ef36 6d84 a937
00000120: 7c2d 3537 9246 4c37 4a60 c437 c694 e437
00000130: 2c6e 3137 b832 3e37 8265 6b37 34ee 7c37
00000140: afdf 5c37 0ce5 6f37 cd97 a337 a06a 2737
00000150: bc23 9f37 30a1 9937 d54f 7b37 44f7 3037
00000160: 7690 0437 c075 5637 a4a6 6a37 5cf7 8f37
00000170: c654 de36 978b 3537 217c ba36 abe6 1b37
00000180: 7d00 1d37 a0d2 1b37 6981 7c37 c7a4 1b37
00000190: 1944 4137 d8e1 3737 775a 3f37 87cf 2e37
000001a0: 374f cd36 c0d3 9537 bc10 2c37 fa4c 0d37
000001b0: 5a5d 3537 7c15 6637 12ad 8137 ad6d ce37
000001c0: c0ec 7637 bfbd 2d37 e374 b237 b6e2 5237
000001d0: 881d 7637 657a 7837 1912 6937 4e96 3137
000001e0: 1eae 2037 7a78 1e37 319b a237 164c 4b37
000001f0: d2ce bf37 15f2 df36 5202 6937 bfa6 dd37
1.3292395e-05 6.32723e-05 2.0020247e-05 4.0249695e-05 2.7004728e-05 2.018254e-05 2.9585824e-05 4.2451393e-05
3.2526474e-05 5.5078413e-05 6.132751e-05 6.59406e-05 1.6997903e-05 7.35448e-05 3.6660684e-05 7.2106544e-05
2.112438e-05 6.146788e-05 3.7875485e-05 1.6891856e-05 3.6313384e-05 4.3668304e-05 3.6136447e-05 2.2081296e-05
3.1328178e-05 3.5224122e-05 3.941288e-05 2.792399e-05 2.9434796e-05 1.6014636e-05 2.2672597e-05 3.475816e-05
2.7554071e-05 3.666593e-05 5.5540353e-05 1.5980433e-05 1.5849942e-05 2.0905693e-05 1.5540225e-05 5.079768e-05
2.9745506e-05 3.6911963e-05 4.3886837e-05 3.8336377e-05 2.5191219e-05 2.1069985e-05 6.581901e-05 3.342316e-05
2.0610076e-05 3.2826265e-05 2.9789682e-05 2.5277042e-05 4.7913694e-05 2.675938e-05 1.9923427e-05 6.501271e-05
2.106419e-05 6.1371735e-05 1.5579793e-05 4.7870053e-05 4.5980218e-05 3.381174e-05 8.3427076e-05 2.4647703e-05
9.567576e-06 1.4423348e-05 8.369809e-06 2.4583976e-05 1.2345252e-05 1.4601442e-05 7.1432087e-06 2.0208035e-05
1.0799031e-05 1.21757785e-05 2.3409859e-05 2.7248996e-05 1.05756735e-05 1.1336691e-05 1.4030726e-05 1.50758315e-05
1.3165102e-05 1.4298839e-05 1.9501802e-05 9.978801e-06 1.8970917e-05 1.831408e-05 1.4979353e-05 1.05479885e-05
7.901448e-06 1.278281e-05 1.3986286e-05 1.7162114e-05 6.6259845e-06 1.08209415e-05 5.5576825e-06 9.2924265e-06
9.358043e-06 9.28776e-06 1.5050501e-05 9.277085e-06 1.1519552e-05 1.0960233e-05 1.140555e-05 1.0419527e-05
6.118698e-06 1.7860788e-05 1.0255895e-05 8.422177e-06 1.0810176e-05 1.37140705e-05 1.545859e-05 2.4608185e-05
1.4717865e-05 1.0355782e-05 2.1273683e-05 1.2569761e-05 1.4669618e-05 1.4810449e-05 1.3892096e-05 1.0585018e-05
9.577283e-06 9.4455845e-06 1.9384172e-05 1.2117458e-05 2.2865283e-05 6.6741e-06 1.38884225e-05 2.64229e-05

weight f4 [64, 1, 63]
00000000: bff5 403b 9531 263d 3c1d 363d f1ac 1e3d
00000010: 235d 303d b2fc c13c bfae 3ebc ba7b 8b3a
00000020: df2e aeb9 1e28 2c3b e0e6 f8b8 3450 353c
00000030: c842 8e3b f263 d13b 8581 f23a 1d62 a63b
00000040: ee05 e139 0361 12bb 0791 51bc bd74 b3bc
00000050: ffec b13b 2078 a3bc a2da 883c bbbe b23c
00000060: 3e02 c5b9 bd4e 793c 173d be3b adf7 cd3b
00000070: 2227 bb3c a369 3f3d df1e 8d3d 969b 533d
00000080: 6c03 073d 9436 de3c b857 213d 6495 1a3c
00000090: c0ef b73b 9af9 5fbc e7bd 5cbc e158 adbb
000000a0: 7189 abb9 58f6 a2ba d503 ee3c 12eb b63c
000000b0: dad3 4abc cac0 2ebc 86ec 92bc 01ce 92bc
000000c0: 3337 c0bb 4873 edbb f2e7 7f3b 2799 0d3c
000000d0: da75 043b cf78 bd3c 04d2 d43c 18b9 1d3d
000000e0: bade 473c d9bd 653b 1660 f73c a841 3b3c
000000f0: f862 be3c fc7c fe3c f8e0 eb3c 6a3f 2dbd
00000100: 2723 d9ba 600f ea3c 4db7 fa3b 9dfa 883c
00000110: f184 ce3c cca4 d63b 0c5e 1b3b 326b 84bc
00000120: 645b 88bc 73b8 acbc f610 0abb b1f3 8cba
00000130: b0a5 e7ba 1ed7 9cbb f538 773c 6243 e73b
00000140: d4c2 a73b e792 593b 1be0 5bbb ca72 a7bb
00000150: 13c4 37bc d19d d0bb 1c2d 863b 881f 54bc
00000160: 3a16 d13b 48b4 373c a0d3 933b 026a 3d3c
00000170: a9f3 513c 08ae d93b 725f dcbb afb0 1ebc
00000180: a48e 63ba a660 72bc fbe4 3abc 061b febb
00000190: 33c0 153c 9c12 f9bb 268c 253c 917f 89bb
000001a0: ea56 693c 1cb1 313c 1dc5 85ba 31fa 803c
000001b0: 5b69 7e3b 3f25 823c f031 1cbd 066d 10bd
000001c0: 391d 88bc 5bec fa3b 8ff5 1c3c 3a14 cb3c
000001d0: 2138 0b3d bbe5 0c3d 304b 0238 3704 72ba
000001e0: e008 32bc 2aa0 49bd 6bf2 6dbd d855 5cbc
000001f0: 7318 b93c 75b2 7b3d 2f56 75bd d32d acbc
00000200: bbdc 93b9 ad52 a23b e35f 423c 48a4 b2bb
00000210: ad71 e1ba 8063 cabc 6d9b 8abc 9a75 fcbc
00000220: a250 2cbd b20a 0fbd f1a2 e5bc 8316 84bc
00000230: e362 40bc 85da 95b8 35f4 33bc df36 78bc
00000240: 1243 1dbc 706f 08bd 5982 01bd a170 eebc
00000250: 10ab bbbc d798 f7bc ea8f b2bc b68d 83bb
00000260: 363e e739 5d54 163c eed8 68bc 6336 89bb
00000270: 55aa 91bb 8832 2dbc 3bc1 e3bc 70ea 28bc
00000280: 3ef0 8dbb 94a4 ccbb 958c bf3c bc10 e33b
00000290: 8cef 623c 3143 973c 1fbc fd3b 0a39 bb3b
000002a0: 7ce7 433c e7dd e13b 1cd2 aa3b 4e87 053d
000002b0: 6a9e 283c 0aaf e63c c4ea 2d3c baa3 9e3c
000002c0: c67f ed3c f6a9 c23c ef0b 3b3d 992b 9d3c
000002d0: 7d4e 473b b725 413c a0ff 503c a93a cb3b
000002e0: 937a 11bc cc88 0ab8 5237 563c e084 d73c
000002f0: 2c5c 9d3d 7d65 763d a585 a83c cbdb 34bc
00000300: 5fb4 9dbc a893 a2bc cba0 ae3c 84d1 a23c
00000310: f83e 953c 7e35 763c e4c1 e63b 84e9 6c3c
00000320: e55f 2e3b 9781 903c 9efd d43c 48f6 ef3b
00000330: 91bc e33b b18d 9b3b ca70 343c 5568 1f3c
00000340: 3ee6 8d3a 7756 ee3c ffe8 a23c 9576 bc3c
00000350: dbeb 343c d78c b03a 2bdf b9bb f115 bd3b
00000360: c90b f9bb 9c51 963b 8dd9 b53c 26ce a63b
00000370: 2d13 ce3c 25c9 ad3c 7289 d3bb 8048 3b3a
00000380: 3531 9dbc 5cc6 adbb b2c9 49bc eae0 453b
00000390: 475a d63c 387c 9e3c ec34 07bc 3095 acbb
000003a0: b154 fbbb 4bb1 d9bc 2bbc 5ebd 7827 4abb
000003b0: baef 813c ee34 d83c 67b4 5e3b b6fa 88bc
000003c0: 6f23 d6bc 4206 af39 1af1 d5bc 6f1a 07bd
000003d0: cf08 e1bc 074b e6bc e359 3539 0082 8f3c
000003e0: 7269 173d 38e8 433b ad58 ebbc d1f8 b3bd
000003f0: 5aed 4a3c 1bac ea3c 38cc bf3b 506c a63b
0.002944335 0.04057463 0.044461474 0.03873915 0.043057572 0.023680065 -0.011638342 0.0010641732
-0.00033222788 0.002626903 -0.00011868565 0.011066485 0.004341457 0.0063900882 0.0018501735 0.005077614
0.00042919762 -0.0022335656 -0.012790925 -0.021906251 0.0054298635 -0.019954741 0.016705815 0.021819463
-0.0003757644 0.015216527 0.0058056223 0.006285629 0.022845808 0.046731602 0.06890654 0.05166205
0.032962248 0.027125634 0.039390296 0.009435032 0.005613297 -0.0136703495 -0.013473011 -0.005290136
-0.00032718063 -0.0012433035 0.029054562 0.022328887 -0.012379611 -0.010666082 -0.017935049 -0.017920496
-0.0058659553 -0.0072464086 0.0039048162 0.008642471 0.0020211847 0.023128895 0.02597905 0.038506597
0.012199098 0.0035055785 0.030197185 0.011429228 0.023240551 0.031065457 0.028793797 -0.042296804
-0.0016566262 0.028571784 0.0076512457 0.016721064 0.025209876 0.006550407 0.002370718 -0.016164396
-0.016645141 -0.021084046 -0.0021067238 -0.0010753778 -0.001767328 -0.004786386 0.015089263 0.007057593
0.005119661 0.0033199133 -0.0033550325 -0.0051101195 -0.011216181 -0.0063664694 0.004094733 -0.012946971
0.0063808234 0.011212416 0.0045113117 0.011560919 0.012814441 0.0066430606 -0.006725245 -0.009685679
-0.0008680618 -0.014793551 -0.011407132 -0.0077546863 0.009140062 -0.0076010954 0.010104215 -0.0041961153
0.014241913 0.010845449 -0.0010205839 0.0157443 0.003882012 0.015886901 -0.03813356 -0.035260223
-0.016615497 0.0076575703 0.00958003 0.024789918 0.033989076 0.034398776 3.106444e-05 -0.00092321954
-0.010866374 -0.04922501 -0.058092516 -0.013448201 0.022594666 0.061449487 -0.059896644 -0.021017944
-0.00028202482 0.0049537034 0.0118636815 -0.0054517128 -0.0017200016 -0.024705648 -0.016919816 -0.030817796
-0.042069085 -0.03492231 -0.028031798 -0.016124016 -0.011742326 -7.145576e-05 -0.010983516 -0.015149801
-0.00959851 -0.0333094 -0.03161845 -0.02910644 -0.022908717 -0.030224247 -0.02179714 -0.004014696
0.00044106104 0.009175387 -0.014211876 -0.0041873916 -0.004445354 -0.01057113 -0.0278021 -0.0103098005
-0.0043316176 -0.006245205 0.023382464 0.006929485 0.013851058 0.018464657 0.007743373 0.0057135867
0.011957046 0.006892908 0.0052130353 0.03259974 0.010291675 0.028159637 0.0106150545 0.01936518
0.028991591 0.023762684 0.045665678 0.019185828 0.0030411773 0.011788777 0.012756258 0.006202061
-0.008879322 -3.3029166e-05 0.013074713 0.026308477 0.07683596 0.06015538 0.02057154 -0.011038731
-0.019251047 -0.019845799 0.021316906 0.019875295 0.018218502 0.015027402 0.0070421565 0.014459971
0.002660745 0.017639918 0.02599984 0.00732306 0.006949969 0.0047471155 0.011013219 0.009729465
0.0010826064 0.029093964 0.019886492 0.023005763 0.01104256 0.0013469708 -0.0056723556 0.005770438
-0.007600282 0.0045873653 0.022198463 0.005090493 0.025155628 0.021214077 -0.0064555937 0.0007144287
-0.019188503 -0.0053031873 -0.012316154 0.0030193874 0.026166094 0.019346341 -0.008252364 -0.005266808
-0.007670008 -0.026573798 -0.05437867 -0.003084628 0.01586138 0.026392426 0.003398204 -0.01672111
-0.026139943 0.00033383264 -0.026115943 -0.032984193 -0.02747002 -0.028111948 0.0001729499 0.017518044
0.036965795 0.0029893052 -0.028728807 -0.08787692 0.012385691 0.02864652 0.005853202 0.00507883

weight f4 [64]
00000000: 63ee 9c3f e410 c23f 93d0 913f d230 893f
00000010: 5132 923f 39fa 983f 9c5a 923f eee0 903f
00000020: 9828 963f 3053 c53f 08ef be3f 5291 cb3f
00000030: c69c 873f c78f bb3f dbbe bf3f 8326 c53f
00000040: 07a2 943f add7 c73f 4e38 b93f e52a 933f
00000050: 77e2 c33f a3cf 893f 3c76 8f3f 3d75 9b3f
00000060: c3e0 8c3f fd65 b23f 7ebb a83f 7203 b53f
00000070: 59d9 7e3f 5cac 7e3f e799 8c3f d808 a63f
00000080: 8f98 943f 9fc4 a13f c790 903f a06a 923f
00000090: 374c 8c3f fcbd a53f aca7 853f c44c c33f
000000a0: d613 923f 830b 903f fc7b 9e3f d1a3 b53f
000000b0: 6c4d b03f 2339 b03f 520a c23f ec4a c03f
000000c0: 7dfe 923f 32cb b93f f71d 963f 056d a33f
000000d0: 97d0 b93f 7e50 b53f 7325 853f a4a2 c33f
000000e0: 034e 883f 0df6 8b3f 10cb a43f 9199 c23f
000000f0: 5c7c 8c3f 3d6e 853f 9754 c53f 431e 8f3f
1.226025 1.5161405 1.1391777 1.0718024 1.1421605 1.1951362 1.1433902 1.1318643
1.1731138 1.5416012 1.4916697 1.5903723 1.0594718 1.4653252 1.498012 1.5402378
1.1611947 1.5612694 1.4470308 1.1497465 1.5303487 1.0766491 1.1207957 1.2145153
1.1006092 1.3937374 1.3182218 1.4141676 0.99550396 0.9948175 1.0984467 1.2971449
1.1609057 1.2638129 1.1294183 1.1438789 1.0960759 1.2948604 1.0441794 1.5257802
1.1412303 1.1253513 1.2381587 1.4190618 1.3773627 1.3767437 1.51594 1.5022864
1.1483914 1.4515135 1.1727895 1.2767645 1.4516782 1.4165189 1.0402054 1.5284009
1.0648807 1.0934464 1.287447 1.5203115 1.0975451 1.0424267 1.541644 1.118111

bias f4 [64]
00000000: 1210 76be c540 3bbe d3b7 89be 2e5e 80be
00000010: 8fa4 59be f23c 65be aa6d 6fbe 5e45 64be
00000020: 73eb 54be c0a2 5ebe 9863 26be d767 09be
00000030: ed21 5cbe 14e6 46be 0978 3bbe 488b 3ebe
00000040: c0d2 84be 363b 50be 2dc9 34be 3c78 85be
00000050: e363 f7bd ccb8 48be 75f8 69be c8b7 6cbe
00000060: 68fa 67be 9311 3ebe ed88 66be 0109 58be
00000070: 9993 68be 90e6 70be 43ec 6dbe efb1 87be
00000080: 90ef 50be b90a 73be c31d 71be 9895 70be
00000090: 6580 7dbe fddd 6bbe ec36 56be abec 52be
000000a0: d3d8 6bbe 16f0 6bbe 2ca2 7dbe 8cae 46be
000000b0: d0aa 73be 2819 82be 6320 4cbe f988 09be
000000c0: 85fd 80be c0b9 29be c960 85be 357c 31be
000000d0: b96e 3dbe 509e 4cbe 9c64 82be d6fd 13be
000000e0: e8e9 61be a7f1 76be 4e68 71be 4800 30be
000000f0: 9a10 74be e2be 6abe be86 2fbe 6840 86be
-0.24029568 -0.18286426 -0.2689806 -0.25071853 -0.2125418 -0.2238653 -0.23381677 -0.22292086
-0.20792942 -0.21741772 -0.1624893 -0.13418518 -0.21497317 -0.19423705 -0.18307509 -0.18607819
-0.2594204 -0.20335087 -0.17654867 -0.26068294 -0.12079599 -0.19601744 -0.22848685 -0.23116982
-0.22654116 -0.18561392 -0.2251317 -0.21097185 -0.22712554 -0.23525453 -0.23234658 -0.2650294
-0.20403886 -0.23734559 -0.2354651 -0.23494565 -0.2475601 -0.230339 -0.20919389 -0.20598094
-0.2303193 -0.23040804 -0.24768895 -0.19402522 -0.23795629 -0.25409818 -0.1993423 -0.13431157
-0.2519342 -0.16574764 -0.26050404 -0.17332537 -0.18499269 -0.19982266 -0.25467384 -0.144523
-0.22061884 -0.2411562 -0.23574945 -0.17187607 -0.23834458 -0.22924379 -0.17141244 -0.26221013

running_mean f4 [64]
00000000: 9ecf fdbc 9abc 7c3a 07b3 71b9 ccd5 fe3b
00000010: 845f 55bc 4950 843c 542e 333c 9a7a e3bc
00000020: ad7f 8e3b 9ca2 e8bb d754 933a ab57 e23c
00000030: be4c dfbb 8240 76bc 0dde 033d dc19 e7ba
00000040: 00a3 9eb9 7580 e4bc 47b6 90bc 346a 02bb
00000050: 737e e03b 0ed5 153b 00d4 133c ee66 e3bb
00000060: e70a 7eba d123 443c 438e f43c 1ca7 bdbc
00000070: fb89 5f3c 5310 173c 0cac 2c3a c1aa 37ba
00000080: 274c d937 cc60 64ba 1685 863c a2b8 8f3c
00000090: 81e5 bfb8 bf2c 2f3a 59be aeba 014f d8bb
000000a0: 0282 bebb 32f3 cbbc 17b6 24bc 52fd b03c
000000b0: a908 633b 7249 95bc 7f5a 593a 7d17 f6bb
000000c0: 1054 dfb7 67ab 5e3c 14b4 a4b9 3951 07bd
000000d0: 7362 e43a d7ad c9bc 6b22 70bc 422c c2bc
000000e0: 58b8 8cbc 596b 5e3c a436 683a 4314 5eba
000000f0: 2e5d 043d 6b0f cc3b 0c2e 3b3c 717f d43b
-0.030982789 0.0009641141 -0.00023050244 0.0077769514 -0.013023261 0.016151564 0.010936338 -0.027768422
0.0043487162 -0.0070994627 0.0011240494 0.027629694 -0.0068145683 -0.015030028 0.032194186 -0.0017631608
-0.00030257553 -0.027893284 -0.017665042 -0.0019899728 0.0068510114 0.0022862586 0.009022713 -0.0069397604
-0.00096909556 0.01197143 0.029852992 -0.023150973 0.013643737 0.009220201 0.0006586916 -0.00070063403
2.5903877e-05 -0.00087119336 0.016420882 0.017544094 -9.150338e-05 0.0006682388 -0.0013331875 -0.006601215
-0.005813838 -0.024896238 -0.010053179 0.021605168 0.0034642613 -0.018223498 0.0008291378 -0.0075101242
-2.6622816e-05 0.01359067 -0.00031414686 -0.033036444 0.001742436 -0.024619026 -0.014656643 -0.023702744
-0.017177746 0.013575398 0.000885824 -0.0008471647 0.032315426 0.006227424 0.011424553 0.0064849188

running_var f4 [64]
00000000: 366b c33d eaf8 063c 1c14 133d 1683 e13c
00000010: 69b9 093d e604 b93c 5f33 543d ef6d 8e3d
00000020: 6e30 f03c 9efa 063d cf84 c23c d8ed d43c
00000030: 51bf 513d a4c2 053d 873e 813d ca04 863c
00000040: 713f 0a3c 447e 0e3d e080 113d b067 8d3d
00000050: 65e0 8a3c 0cca 623d 0102 b63d 61d4 0b3d
00000060: e75b a93c d168 f13c c6f8 f73c 64ba 1e3d
00000070: a35a f43c b50f 213c 5da8 833c ec11 873c
00000080: 4439 1b3d d308 c03d fd6f 583d b5e0 a83c
00000090: 53ad ef3b 993d 163d 6c6a f13c 4e1a bf3c
000000a0: 92e1 9c3d 902f 473d 3b30 a53c 22c4 4a3d
000000b0: 7b77 b03d 0b80 7d3d 39e7 443c fe4e 3e3d
000000c0: 0d65 883d 119f 873d b613 363c e4b6 a83c
000000d0: 4abb 933c 9711 1c3d 61be c63d afc9 bd3c
000000e0: a53f 943d 3183 3c3d e939 893d bb2c 273c
000000f0: a1d2 d13c de04 653d f90a da3c 1292 9e3d
0.09541933 0.008238057 0.03590785 0.027528327 0.033624087 0.022585344 0.051806804 0.06954562
0.029319968 0.03295385 0.023744969 0.025992319 0.051207844 0.032656327 0.06310754 0.016359705
0.008437977 0.034788385 0.035523295 0.069045424 0.016952703 0.05536847 0.08887101 0.034138087
0.020673705 0.029468926 0.030269992 0.038751975 0.029828375 0.009830405 0.016071493 0.016488038
0.03789641 0.09376683 0.052841175 0.020614961 0.007314363 0.036679838 0.029469691 0.023327973
0.076602116 0.048629344 0.0201646 0.049503453 0.08616539 0.06188969 0.012018018 0.04646205
0.06659899 0.066221364 0.011113098 0.020595022 0.018033642 0.038102712 0.09704281 0.02316746
0.07238702 0.04602355 0.067004986 0.010203536 0.025613131 0.055912845 0.02661656 0.077427045

weight f4 [64, 1, 31]
00000000: 123f 7fbd fb3f 0bb9 84ed 33bc 6bcf 38bd
00000010: d30e 12bd 5094 9abc 6a87 a3bc dea2 76bb
00000020: 9efd 9ebc 30ed 92bb 9a2a ac3a 2cf6 673c
00000030: 340e d1bb 34a6 8bbc 7066 84ba d09b 143c
00000040: ffc3 bcbb b02a 8fbb 2f68 fcbb 134d 003c
00000050: a20c c13c 27a0 e63b 6e19 a23c 48e3 d63b
00000060: ddf1 d83c fb86 163c 3f38 4f3c 2486 c8bb
00000070: 0303 86ba b7e5 1a3d 7b0e 26bd ceec 283d
00000080: 0e16 313c 4c86 a33c da6d f33c 3785 ec3c
00000090: b187 e23c 15c9 8a3c babf 4a3c d028 8f3c
000000a0: 1637 343c 140a 61bb 5b24 933b 39a3 0dbc
000000b0: dbe6 d63b 9ada f2bb e7e4 7bbc 06a6 debc
000000c0: 0883 6ebc 2e38 b0bc 0697 08bd 5040 72bc
000000d0: 1180 82bc ca34 56bc 9afc 06bc 7a55 e03b
000000e0: 5f6e 1e3c 728e 663b ba84 6e3c e350 543b
000000f0: bd9c 043c 3aa1 a43b 23ed abbd 7adc 68bc
00000100: b865 51bc 67b0 e0bc 2ed0 53bd 62dc bdbc
00000110: 8a46 b6bc 0a27 593c c37f 6dbb cb8e b4ba
00000120: f146 07bc c0f4 ccbc f6c2 dbba ec3f 0fbc
00000130: 4269 edba fb3b 8ebc 0245 843b 19b4 683c
00000140: 843a 983c 1742 433c a0b4 a83c a7ac 7e3c
00000150: ee8c d7ba e8bb ca3b 1f95 05bc 5b79 a9b8
00000160: 39d2 d5bb 2d6d 7139 863f 35bc 6dc4 1eba
00000170: 37c6 653b 5b53 88bd 9866 cc3a aa26 e33c
00000180: e65e e43b 3788 83bc 958a b0bb 11f1 99bc
00000190: 6f73 a3bc b742 c6bc 7f2f 113b 51a5 ce3b
000001a0: 1136 3e3c bbbf 2e3c 8475 9cbb b55a 57bc
000001b0: e5b6 82bc 8fdc b6bc 4d80 173c 4fac aa3c
000001c0: 1060 f13b 97fa 043c bd56 85bb ee46 07bd
000001d0: 725f 81bc 6c33 b9bb 8ac7 2abc 6e64 4cbc
000001e0: e882 c53c 0165 7d3c 2d2a c0bc e6aa 45bd
000001f0: 4f5b 083a 5ff4 fb3b d722 cf3c 290e 8a3c
00000200: 7728 d13c c749 1e3d fd35 ee3c 71d4 cd3c
00000210: ec50 383d d72a 843c 2158 4a3b 79f2 003c
00000220: 98fb b8bb 3e4c c2bc eb8a 96bc b173 16bd
00000230: ff50 d5bc 0382 eabc 448a 08bd 3fd1 60bc
00000240: cf85 64ba d8fa 693a b096 6f3c 333b 8a3c
00000250: 1ec3 b73c 9d9c 3d3d ab72 0d3d 1d97 0d3c
00000260: 1c7e d93c d5d0 a83c dd3f cf3c 340d 2a3d
00000270: ec26 ef3b 52b2 b53c 442b 103d 46ee 513d
00000280: 9e82 df3c 6706 e13c 1274 d13c b836 b93c
00000290: a61a 903c 5b68 563c 5977 3ebc c072 2abc
000002a0: 48ac dfbb 977e 19bd 55d7 05bd cec1 92bc
000002b0: 9311 ffbc 1abb 7bbb 47c0 57bc 92e1 a1ba
000002c0: 3e9e 963b fee4 873c 96f5 a83c 8b13 a73c
000002d0: 9ff7 903c 35e2 e03c 655f 193d 87f6 0f3c
000002e0: 954b 443c 3d3e 153c 2758 3d3d 8b51 693c
000002f0: f8c4 0a3c 29c5 163d 1e46 1c3d 1d23 b63c
00000300: 834e a53b 09e2 6e3c 6002 5a3b ea8b 1abc
00000310: d659 11bc 2ccf e5bc cc2d cebc 6af7 41bc
00000320: 9000 04bd e455 90bb ad1d 05bc d9cb 963a
00000330: 9388 833b 2fed b03c 86ab ad3c f92c 073c
00000340: bfa3 8f3c 4304 e33c afc0 443c 77d3 713c
00000350: 37a7 0cbc 79b4 8abc 880b dcb7 1d2c d33c
00000360: 3b14 5cbd 84e0 9abd 19d5 89bc 8355 c439
00000370: b603 063c f376 55bb 0c99 cebc def0 4e3c
00000380: 4676 8db8 24ec d2bc 720d e0bc 6947 b7bc
00000390: 9982 c73c fe15 873c 6c10 d53c e2fe 49bc
000003a0: eda8 683b 4687 36bc 7ca3 03bc 9eaf cdbc
000003b0: cfb5 1cbc 2834 5f3c 0001 443c 9577 4d3c
000003c0: 5aea 83bb 74df 61bc 4691 c73b d48b fbbb
000003d0: 7b16 363c 09e9 39bc 86a0 65bc eb6b 713d
000003e0: c669 0e3d 3186 c9ba 3e6c ce3c 752f b83c
000003f0: d660 ed3c e320 273d b2a0 953c 1d50 973c
-0.062316008 -0.00013279908 -0.010981921 -0.045119684 -0.03565867 -0.018869549 -0.019962031 -0.0037633698
-0.019408043 -0.0044838414 0.0013135255 0.014157813 -0.006379867 -0.017047025 -0.001010133 0.009070352
-0.0057606692 -0.0043691024 -0.0077028493 0.007830876 0.023565594 0.0070381346 0.019787516 0.0065578558
0.026482517 0.009187455 0.012647687 -0.0061195064 -0.0010224286 0.03781673 -0.040541153 0.04124146
0.010808481 0.019961499 0.029715467 0.028872116 0.027652593 0.016941587 0.012374813 0.017475516
0.010999462 -0.0034338282 0.004490418 -0.008644872 0.006558282 -0.0074113132 -0.015374399 -0.027178776
-0.0145576075 -0.021511164 -0.033347152 -0.014785841 -0.015930207 -0.013074109 -0.008238936 0.006846127
0.009669869 0.003518012 0.014558012 0.0032396845 0.00809401 0.0050241025 -0.083948396 -0.014212722
-0.012780599 -0.027427865 -0.051712207 -0.023176376 -0.022250433 0.013253937 -0.0036239482 -0.0013775466
-0.00825666 -0.02501905 -0.0016766477 -0.0087432675 -0.0018113034 -0.017362585 0.0040365467 0.014203095
0.01858259 0.0119176125 0.020593941 0.015544093 -0.0016445199 0.006186951 -0.008153229 -8.081152e-05
-0.0065253046 0.00023024222 -0.011062508 -0.00060564914 0.0035060772 -0.06656524 0.001559454 0.027728397
0.0069693206 -0.016056163 -0.005387614 -0.018791707 -0.019952504 -0.024201734 0.0022153554 0.0063063283
0.01160957 0.010665829 -0.004774751 -0.013144185 -0.015956352 -0.022321967 0.009246898 0.020834116
0.007366188 0.008116386 -0.004069178 -0.03302663 -0.015792582 -0.005651882 -0.01042355 -0.012475116
0.024110273 0.015465976 -0.023457611 -0.048258685 0.00052015943 0.0076890434 0.025285168 0.016852455
0.02553199 0.03864458 0.029078478 0.025125714 0.044999048 0.016133709 0.0030875283 0.00787031
-0.0056452267 -0.023717996 -0.018376788 -0.036731426 -0.026039599 -0.028626448 -0.033334985 -0.013721763
-0.0008717449 0.0008925623 0.014623329 0.016873932 0.022431906 0.046291936 0.034533184 0.008641985
0.026549391 0.020607391 0.025299007 0.041516498 0.007298341 0.022179756 0.03519751 0.051252626
0.027283963 0.027468873 0.025568042 0.0226091 0.017590832 0.013086404 -0.011625134 -0.010403335
-0.0068259574 -0.03747424 -0.03267606 -0.017914679 -0.03113631 -0.0038411082 -0.013168401 -0.001235055
0.0045965007 0.016588684 0.020624917 0.020395061 0.0176962 0.027451614 0.03744449 0.008786804
0.011980911 0.009109077 0.046226647 0.014240633 0.008469813 0.03680912 0.038152806 0.02223354
0.0050447597 0.014580258 0.0033265576 -0.009432772 -0.008871516 -0.028052889 -0.025168322 -0.011838773
-0.0322271 -0.00440477 -0.008124751 0.0011504843 0.0040140836 0.021597473 0.021199953 0.008250468
0.017534135 0.027711993 0.01200883 0.01475989 -0.008584789 -0.01693176 -2.6231413e-05 0.02577787
-0.05373023 -0.07562354 -0.016825246 0.00037447744 0.008179596 -0.003257212 -0.025219463 0.012630669
-6.745434e-05 -0.025747366 -0.027350161 -0.022372918 0.024354266 0.016489979 0.026008807 -0.012328835
0.0035501078 -0.01114065 -0.008034583 -0.025108155 -0.009564831 0.013623275 0.011963129 0.012540718
-0.0040257396 -0.0137861855 0.006090316 -0.007676581 0.011113758 -0.011347064 -0.014015323 0.05894081
0.034768842 -0.0015375075 0.025198098 0.022483567 0.028976839 0.040802848 0.018265102 0.018470818

weight f4 [64]
00000000: 967b 703f 13b9 853f c5d5 793f e5d3 9b3f
00000010: f738 8c3f 45fa 883f fb28 873f 39ba 7e3f
00000020: 902f 953f 4e70 833f 84f1 823f fa51 823f
00000030: 1848 8d3f 48e0 893f 221f 883f aaac 813f
00000040: ba49 893f 0b1b 823f 3791 803f f2d3 8a3f
00000050: f7b3 833f c335 8e3f 76f6 883f bb08 833f
00000060: 0884 8e3f 825d 823f a4c1 783f f2bc 883f
00000070: f0c8 8a3f baa2 913f 4b48 7e3f 59dd 7b3f
00000080: 2993 8b3f 59e4 873f 39a0 8b3f 6005 7b3f
00000090: 40b6 983f 0394 873f 8f38 883f b856 893f
000000a0: 2a51 893f 038d 7d3f a0e8 883f 815e 883f
000000b0: df72 7f3f 8392 863f f56b 823f 4132 853f
000000c0: bbed 843f 0cd8 893f 2678 833f 4f7a 8c3f
000000d0: f9f3 823f 5aa6 8b3f 10af 873f 9e67 873f
000000e0: 12ba 893f cdd2 823f 70ba 703f be0e 8b3f
000000f0: e7cc 763f 92bf 893f e942 853f ed33 943f
0.9393858 1.0447105 0.9759181 1.217404 1.0954884 1.0701376 1.0559381 0.99502903
1.165514 1.0268648 1.0229955 1.0181267 1.1037626 1.077157 1.0634501 1.0130818
1.0725625 1.0164503 1.0044316 1.084593 1.0289296 1.1110157 1.0700214 1.0237039
1.1134043 1.0184786 0.9717047 1.0682662 1.0842571 1.1377785 0.9932906 0.98384625
1.0904285 1.0616561 1.0908271 0.98055077 1.1930618 1.0592045 1.064226 1.072959
1.0727894 0.9904329 1.0695992 1.065384 0.99784654 1.0513462 1.0189196 1.0405961
1.038505 1.0769057 1.0271041 1.0974826 1.0230705 1.0910141 1.06003 1.0578496
1.0759909 1.0220581 0.9403448 1.0863874 0.96406406 1.0761588 1.0411044 1.1578346

bias f4 [64]
00000000: 1210 76be c540 3bbe d3b7 89be 2e5e 80be
00000010: 8fa4 59be f23c 65be aa6d 6fbe 5e45 64be
00000020: 73eb 54be c0a2 5ebe 9863 26be d767 09be
00000030: ed21 5cbe 14e6 46be 0978 3bbe 488b 3ebe
00000040: c0d2 84be 363b 50be 2dc9 34be 3c78 85be
00000050: e363 f7bd ccb8 48be 75f8 69be c8b7 6cbe
00000060: 68fa 67be 9311 3ebe ed88 66be 0109 58be
00000070: 9993 68be 90e6 70be 43ec 6dbe efb1 87be
00000080: 90ef 50be b90a 73be c31d 71be 9895 70be
00000090: 6580 7dbe fddd 6bbe ec36 56be abec 52be
000000a0: d3d8 6bbe 16f0 6bbe 2ca2 7dbe 8cae 46be
000000b0: d0aa 73be 2819 82be 6320 4cbe f988 09be
000000c0: 85fd 80be c0b9 29be c960 85be 357c 31be
000000d0: b96e 3dbe 509e 4cbe 9c64 82be d6fd 13be
000000e0: e8e9 61be a7f1 76be 4e68 71be 4800 30be
000000f0: 9a10 74be e2be 6abe be86 2fbe 6840 86be
-0.24029568 -0.18286426 -0.2689806 -0.25071853 -0.2125418 -0.2238653 -0.23381677 -0.22292086
-0.20792942 -0.21741772 -0.1624893 -0.13418518 -0.21497317 -0.19423705 -0.18307509 -0.18607819
-0.2594204 -0.20335087 -0.17654867 -0.26068294 -0.12079599 -0.19601744 -0.22848685 -0.23116982
-0.22654116 -0.18561392 -0.2251317 -0.21097185 -0.22712554 -0.23525453 -0.23234658 -0.2650294
-0.20403886 -0.23734559 -0.2354651 -0.23494565 -0.2475601 -0.230339 -0.20919389 -0.20598094
-0.2303193 -0.23040804 -0.24768895 -0.19402522 -0.23795629 -0.25409818 -0.1993423 -0.13431157
-0.2519342 -0.16574764 -0.26050404 -0.17332537 -0.18499269 -0.19982266 -0.25467384 -0.144523
-0.22061884 -0.2411562 -0.23574945 -0.17187607 -0.23834458 -0.22924379 -0.17141244 -0.26221013

running_mean f4 [64]
00000000: 0875 5b3b 2878 c2bb c42d 593b 1d1e e9bc
00000010: 386d 543c 36a3 1b3d 1bcb 06bc 3038 43b9
00000020: 824c 7a3c 8fca 10ba ad0a c13b 0366 363b
00000030: a4fc 883a 0da1 8e3a da0f f5b9 0928 3eba
00000040: d3f2 e539 9b47 72ba 9144 6b39 c49f 493b
00000050: 95dc 55ba e2bc 5dbc 631c cbba bf7b 6f3b
00000060: a1c6 77b8 2077 5d3b 03eb 8fb9 4373 433b
00000070: a101 823c a9ed ee3b 69d9 d23a 0dcd 47b9
00000080: 623e 85b8 4482 0fbc 2f26 ac3a c489 993c
00000090: 2c76 ab3a 908d 33ba 4299 533d c916 aa39
000000a0: 859b b639 4bf0 893b 08e2 583b 0f88 7d3b
000000b0: ce78 c9b9 8fb6 233a f0a9 723b 2c80 dcb9
000000c0: 103a 483a 4a3e cbba 27ef 84b7 6c7b 633b
000000d0: d053 1c3b 3665 253b 167b 8bbc b71c 873b
000000e0: 3933 2bbc 2f48 d3b8 9015 5d3c 2a1f 63bb
000000f0: f2a8 c4ba 7f68 0fba a75a e939 af5f 04bc
0.0033486504 -0.005934734 0.003313885 -0.028456742 0.012965493 0.037997447 -0.008227135 -0.0001861758
0.01527703 -0.00055233476 0.005891165 0.00278318 0.0010451269 0.0010881737 -0.00046741852 -0.00072538905
0.00043859202 -0.00092422374 0.0002243689 0.0030765394 -0.00081581745 -0.013533803 -0.0015496131 0.0036542264
-5.9074377e-05 0.0033792928 -0.00027450183 0.002982334 0.015869917 0.007291515 0.0016086522 -0.00019054506
-6.353554e-05 -0.008759085 0.0013133938 0.01874245 0.0013081483 -0.00068494026 0.05165983 0.00032441903
0.00034829616 0.0042095534 0.003309371 0.0038685834 -0.00038427714 0.000624516 0.003702756 -0.00042057165
0.00076380465 -0.0015506234 -1.584699e-05 0.0034711016 0.0023853667 0.0025237328 -0.017026465 0.004123296
-0.010449224 -0.00010074709 0.01349391 -0.0034656026 -0.0015003963 -0.0005470588 0.00044508764 -0.008079453

running_var f4 [64]
00000000: 4640 a53b 5c2e 703b bd68 033c a28c 4b3c
00000010: 5727 093c f946 a63b 1210 b03b 1235 283c
00000020: d85b d63b b91f 913a 908c 983a e012 a53a
00000030: 7c0b 0b3c ca71 893b 7544 0d3b 911c a23b
00000040: e613 e53b 549f 8b3a 4740 843a f5b0 483c
00000050: fcca 303a 8079 933c 80ea 6d3c 220d 7a3b
00000060: c2dd 2a3c 2d2b 223a 1eef 933a c95f 863b
00000070: 2570 973b 83c1 323c bfe5 af3b a964 e13a
00000080: aa34 0c3c 8b83 2a3c 97f5 043c 2e9f 823b
00000090: 8e55 d83b 28ec 313c b8a6 143b 29db 8e3b
000000a0: ec17 843b 3863 123c 3814 ec3a 7cd6 e73a
000000b0: 83ff b23a cdf4 a63b 1a64 913b 1bce c03a
000000c0: 316a 863b 2e08 1b3b baef b93c 2c01 743b
000000d0: 454d 333a 441c f73b 7540 193c 9569 143c
000000e0: 1721 763b ceda 0d3c 1f66 9c3a 4743 693a
000000f0: e190 953c e7f3 c43b f6d7 f23a 5796 2b3c
0.0050430624 0.0036648726 0.008020577 0.012423666 0.008371196 0.0050743786 0.0053730095 0.010266559
0.0065417103 0.0011072076 0.001163857 0.0012594126 0.008486625 0.004194473 0.0021555696 0.004947253
0.0069908975 0.0010652342 0.0010089957 0.012249221 0.0006744114 0.018002272 0.014521241 0.00381548
0.010428848 0.0006186243 0.0011286472 0.004100774 0.004621523 0.010910395 0.005367964 0.0017196137
0.008557478 0.010407339 0.008115194 0.003986261 0.006601996 0.010859527 0.002268238 0.004359622
0.004031172 0.008934788 0.0018011397 0.0017687823 0.0013656471 0.0050951005 0.004436982 0.0014709862
0.0041020145 0.0023655999 0.022697318 0.0037232144 0.0006839822 0.0075412113 0.009353747 0.009058376
0.0037556344 0.008658124 0.001193229 0.000889827 0.01825756 0.0060105207 0.0018527496 0.0104728555
